SST_classifier_head.pt (torch_old, 12847 bytes, 2 tensors)

mlp.weight f4 [3, 1024]
000000 ba a4 09 bd 21 39 2a 3d 66 70 9f bc 3e 7e 84 3c
       -0.03360436 0.04155839 -0.019462775 0.016173478
000010 f2 1b 85 3d 44 74 56 3d 53 09 b0 3c 4a 3c bb 3d
       0.06499471 0.052356973 0.021488821 0.091423586
000020 4a 11 8d bd 44 40 82 3c 00 85 25 be d5 24 ec 3d
       -0.06888063 0.015899785 -0.16164017 0.11530463
000030 8c f4 ee bc 13 1f 54 bd 51 f2 59 bd 5e 8f ca 3c
       -0.029169343 -0.051787447 -0.053209607 0.024726566
000040 db 0b 2f be ae b6 76 3d 59 2d 72 bd 72 ee fc 3c
       -0.17094366 0.06023281 -0.05912528 0.030875418
000050 cc 7e 9c bd 46 d8 68 3e 4a b0 0f bd 3f 78 50 3e
       -0.07641372 0.22738752 -0.03508023 0.2035837
000060 0e df df bc 90 c1 3e bd 4e c5 a2 3d 3e 5f 34 bd
       -0.02732804 -0.046571314 0.07947789 -0.044036143
000070 45 16 88 bc 81 37 b1 bd 4a e7 f9 3d 8b a3 0f 3e
       -0.016612181 -0.08653165 0.12202318 0.1402723
000080 31 30 23 bc 40 96 93 3c 57 8b 56 bb f9 4e b2 bd
       -0.00996022 0.01801598 -0.0032736862 -0.08706469
000090 17 29 75 bd 6c 25 20 3c a3 ee 14 3d 2c ec c2 bd
       -0.05985364 0.009774547 0.036360394 -0.095177025
0000a0 f6 7b 96 3c 99 b0 11 bb 03 6d ba 3d 0b 69 e2 3c
       0.018369656 -0.0022230505 0.091028236 0.027637979
0000b0 e4 f3 a6 3d a9 71 00 3e 90 fb c1 3c 41 14 a5 bd
       0.08151987 0.12543358 0.023679525 -0.08060504
0000c0 90 9d 01 3e eb e3 bf 3c 29 ab ab bd 80 7c d3 3c
       0.12657762 0.02342411 -0.083822556 0.025816202
0000d0 c0 e5 3c bd 92 c7 f7 bd 8b c0 c9 3d 07 72 9e bd
       -0.046117544 -0.12098612 0.09851178 -0.07736593
0000e0 82 3d 77 bd 6d 7c 87 3d 3a fb 2c bd dd 65 95 3d
       -0.060361393 0.06615529 -0.042231776 0.072948195
0000f0 64 63 82 bd fc 0e 6e bb 56 c8 17 3d b4 04 ce bd
       -0.063666135 -0.003632485 0.03705629 -0.10059491
000100 0c d8 4f bc 44 35 a7 bc 9f da 13 3e 42 6d 1c 3d
       -0.012685787 -0.020411141 0.14438866 0.038190134
000110 e7 b0 3c 3d 2d 63 f1 3c 8d f4 cf bd e6 f4 50 bd
       0.046067145 0.029466236 -0.10154066 -0.051014803
000120 66 f8 91 ba 3f b4 14 be ea a2 6d bb e1 50 a0 3c
       -0.001113665 -0.14521883 -0.0036260434 0.019569816
000130 10 20 30 3d 30 17 cb 3d ca cc 07 bd 93 99 8d 3d
       0.042999327 0.09916532 -0.033154286 0.069140576
000140 aa cb 09 be 41 ea 97 3c fa a9 10 3b d0 c1 35 3c
       -0.13456598 0.018544318 0.002207397 0.011093572
000150 bf 57 06 bd d0 52 63 bd 1c a9 7a bd 50 4b ff bd
       -0.032798525 -0.055498898 -0.06119643 -0.124655366
000160 89 68 85 be a7 5a 56 bd 59 02 74 bd 39 80 6c b9
       -0.26056316 -0.052332547 -0.05957255 -0.0002255448
000170 5a 47 13 bc 75 78 dd bd ce 3f a0 bd 33 d4 d4 bc
       -0.0089891795 -0.10813991 -0.0782467 -0.02598009
000180 4e 32 bf bd 45 33 75 3e 50 98 21 3d 55 ae 20 bd
       -0.09335767 0.23945339 0.039451897 -0.039228756
000190 8d 6d c8 3d b6 59 09 3d 6b 48 09 be e7 fa 72 3c
       0.0978652 0.03353282 -0.13406532 0.014830328
0001a0 b7 25 1b be 3c e9 26 be a9 3b 13 bd 1d c2 d5 3c
       -0.15151106 -0.1629991 -0.03594557 0.026093537
0001b0 be 8d b4 3b 24 07 9b 3b 2c 5c b6 3d 59 03 0e bd
       0.005510061 0.004731076 0.08904299 -0.03467116
0001c0 5a 2e 01 3d e2 ca be bc 8e 4b 61 3d 0e cc 5a bd
       0.031538345 -0.023290101 0.055003695 -0.053417258
0001d0 a9 f0 88 3d c9 f4 1d be b1 ba 94 bd b4 d7 d7 3d
       0.06686527 -0.1542541 -0.07262171 0.10539189
0001e0 da c8 e9 3a e8 ba 40 bc 1e 49 c4 3d 23 a5 a0 bd
       0.0017836348 -0.011763312 0.095842585 -0.07843997
0001f0 bd 1e b8 bd 9d 9d a3 bd ca 90 71 3c d6 63 75 bd
       -0.08990238 -0.07989047 0.014743993 -0.059909664
000200 b1 22 7c bc 35 f5 d5 3c 4e 39 02 bd d9 ff 60 3c
       -0.01538913 0.0261179 -0.03179293 0.013732874
000210 d6 c3 07 be 63 b4 8f 3d b6 76 d2 3d 2b 9c 16 be
       -0.13258299 0.07016828 0.102765486 -0.14708011
000220 7c 23 67 3d 94 bc 03 bd 9a ac a6 bd 9d 40 22 be
       0.056430325 -0.032162264 -0.0813839 -0.1584496
000230 e7 4c c7 3d 17 24 56 3d f5 17 d4 bd da 80 94 3c
       0.09731465 0.05228051 -0.10356132 0.018127847
000240 8d d6 29 3c 51 4b 90 3b b2 fb 61 bc 8a ed d9 3d
       0.010366094 0.0044035097 -0.013792919 0.1064101
000250 5d ac 37 3e ec cf e5 3c ff 2b 95 bc 80 0c 05 bd
       0.17936845 0.028053246 -0.018209456 -0.032482624
000260 2c 60 1b bd 82 a2 4d 3e 21 00 17 bd e9 95 a2 bc
       -0.037933514 0.20081523 -0.036865357 -0.019846873
000270 24 02 31 3d a0 c8 4b be a4 9e 32 bc d2 2d bd bc
       0.043214932 -0.19900751 -0.010902081 -0.023093138
000280 bd a1 1e 3e 2b 9f 30 bd 9a ba f0 bc 30 50 a6 3d
       0.15491386 -0.043120544 -0.029385854 0.08120763
000290 81 83 2e 3e c9 b9 df bd 85 fe 16 be 4c e1 0d 3d
       0.17042352 -0.109241076 -0.14745529 0.034638688
0002a0 b8 e4 b4 3d 07 eb d5 bc 05 3f db bd a1 28 9a 3d
       0.08832687 -0.026113046 -0.107053794 0.075272806
0002b0 3f 6c 98 3c c4 3b 0e bd 3b a4 5b bc 4a df 8d bc
       0.018606303 -0.034724966 -0.013405855 -0.017318387
0002c0 75 9a 63 3e f6 ab f3 3c f0 27 4b be b0 97 b9 bc
       0.2222689 0.029745083 -0.19839454 -0.022655338
0002d0 27 a7 d5 bd 20 76 55 bc 2f 09 89 3c de 64 a3 bc
       -0.104322724 -0.0130286515 0.016728012 -0.019945558
0002e0 79 ff a8 3c ee f8 cd bd 3b a9 51 bd df 49 9e 3d
       0.020629631 -0.10057245 -0.05118678 0.077289335
0002f0 38 2c f2 3d 5d fb 9c 3d b3 25 c7 bd 4a 37 88 3a
       0.1182484 0.07665131 -0.097239874 0.0010392454
000300 17 ac b4 bd f5 12 3f bc 14 b1 16 be 50 3d 02 3d
       -0.08821886 -0.011662235 -0.14715987 0.031796753
000310 b1 66 c7 3d 4b 31 1f be 7c ff a2 bd 00 d7 57 bd
       0.09736384 -0.15546148 -0.07958886 -0.052695274
000320 c2 1b 01 3e 05 50 07 3d d5 96 0c 3e d5 6e d4 3c
       0.12608245 0.033035297 0.13729413 0.025931755
000330 41 18 21 3e 40 39 44 3e 08 d2 43 bc f2 7d 94 bc
       0.15731908 0.19162464 -0.011951931 -0.018126462
000340 a8 b1 5f 3e 34 34 bd bd 19 5b a6 3d 57 64 9a bd
       0.21845114 -0.092384726 0.08122844 -0.075386696
000350 1f 9a 49 3c 2d e3 34 3d 82 4e c7 bb 9a ad 58 bd
       0.012304812 0.044161964 -0.006082357 -0.052899934
000360 96 6d 3f bd a4 06 c8 3d 0b 8e 27 3c 18 cb 83 bb
       -0.04673537 0.097668916 0.010226737 -0.0040220134
000370 4d 62 ee 3d ab 39 78 bb a4 ba 56 bd 2f 8d b8 3d
       0.11639843 -0.003787617 -0.052424088 0.09011304
000380 b9 68 9f bd 8c b9 11 3e c3 a6 40 bd ad 77 8c 3d
       -0.07783646 0.14230937 -0.047034036 0.06858764
000390 66 27 0e 3d 1e 9e b1 3d 8f 17 f2 bd 94 4c 5b bc
       0.034705542 0.086727366 -0.118209 -0.013384957
0003a0 17 d5 37 bd ec 03 1c be b4 45 4f 3e 4a 5e e6 3d
       -0.044880953 -0.15235871 0.20241433 0.11248453
0003b0 72 b5 fe bc 80 e6 77 bd eb 49 a4 3d 3f f8 12 3c
       -0.03109238 -0.060522556 0.08021911 0.008970319
0003c0 d6 1c b0 bc aa f2 fa 3d 36 84 a7 3c ab e4 d7 bd
       -0.021498125 0.12253316 0.020448785 -0.10541662
0003d0 1d f7 c1 3d a2 0d ed 3d 6b 58 a2 bc e4 54 05 3e
       0.09470961 0.11574866 -0.019817552 0.13020664
0003e0 9c ab 68 bd b5 91 8b 3c 4c 82 05 3e 36 0d a5 3d
       -0.056804284 0.017037252 0.13037986 0.080591604
0003f0 99 26 b0 3d fd c0 06 be 53 ff 85 bd 9f 63 a3 3d
       0.08601112 -0.13159557 -0.0654284 0.079779856

mlp.bias f4 [3]
000000 12 6e ec bc 69 e5 65 3c b1 39 cd ba
       -0.02886108 0.014031746 -0.0015657452
